example_model.pt (torch, 30020 bytes, 5 tensors)

weight f4 [50, 100]
0	0x3db5ac9a	0.08870812
1	0x3bd796c5	0.0065792524
2	0xbd8f0501	-0.06983376
3	0xbd9f6c5f	-0.07784342
4	0x3dc9b190	0.098483205
5	0xb98960ae	-0.00026202708
6	0xbd0af3a7	-0.03392377
7	0xbdc2ad28	-0.09505683
8	0x3ce33829	0.02773674
9	0xbc937fe8	-0.018005326
10	0xbd77153a	-0.060322978
11	0x3dc3da96	0.09563176
12	0xbd4612ad	-0.048357654
13	0xbc86261d	-0.016375596
14	0x3d2e04d4	0.042485073
15	0xbd02fa65	-0.031977076
16	0xbdc9fe5f	-0.098629706
17	0x3d1b4254	0.037905052
18	0x399d1d27	0.00029967094
19	0xbd6a8e22	-0.057264455
20	0x3d697873	0.056999635
21	0x3c5c5e61	0.013450236
22	0x3daf4f55	0.08560053
23	0xbdad30d3	-0.08456578
24	0x3db73719	0.08946056
25	0xbc66845c	-0.014069643
26	0x3c65ea67	0.014032937
27	0x3d9f8eb6	0.07790892
28	0xbd8e9627	-0.06962233
29	0xbd7bf361	-0.0615114
30	0x3d079b19	0.033106897
31	0x3db165d4	0.08662
32	0xbd5b0220	-0.053468823
33	0x3d07b37f	0.033130165
34	0x3ceb6b12	0.028737579
35	0xb9f2dc66	-0.00046322047
36	0xbb72560f	-0.0036977564
37	0xbb40b2b1	-0.0029403383
38	0xbd9bacf4	-0.076013476
39	0xbdc11762	-0.09428288
40	0x3d89e762	0.06733586
41	0xbc7d9f61	-0.015479893
42	0x3d1838b7	0.037163462
43	0xbd8cef78	-0.068816125
44	0xbd8e7d3e	-0.06957482
45	0xbd550243	-0.05200411
46	0x3dbdab5d	0.092612006
47	0x3d298e73	0.041395616
48	0x3d58787b	0.052849274
49	0xbd1e126e	-0.038591795
50	0xbd950141	-0.0727563
51	0xbdb80458	-0.089852035
52	0xbdbfcf58	-0.093657196
53	0x3d72b3d6	0.059253536
54	0x3c148fd3	0.0090674935
55	0xbda28897	-0.07936209
56	0x3d998b27	0.07497244
57	0x3a660e5a	0.0008775942
58	0xbdc348ce	-0.09535371
59	0xbc561cb2	-0.013068365
60	0x3d731966	0.059350394
61	0xbd1c405e	-0.038147323
62	0x3d57dbe3	0.052699935
63	0xbdbf557c	-0.09342477
64	0xbd860fe0	-0.06545997
65	0xbd1818f8	-0.037133187
66	0xbd642c28	-0.055706173
67	0xbdbb6e4a	-0.09151895
68	0x3cbe06d6	0.023196619
69	0xbd15ebac	-0.036601707
70	0xbcd2f69a	-0.025752354
71	0x3d627dbe	0.0552957
72	0x3cfcd456	0.030862968
73	0xbd895841	-0.06706286
74	0x3d8d30d4	0.06894079
75	0xbcc2e8a6	-0.023792576
76	0xbdc3203c	-0.095276326
77	0xbca07705	-0.019588003
78	0xbd7638b6	-0.060112678
79	0x3ce836e1	0.02834648
80	0x3cba3df0	0.022734612
81	0xbcf04dc3	-0.029333955
82	0xbcdb1435	-0.026743034
83	0xbd987b0b	-0.074453436
84	0x3d1fb00a	0.038986243
85	0x3c5c3c39	0.013442093
86	0x3d98fa35	0.07469598
87	0x3dcb6e27	0.09933119
88	0xbce5029f	-0.027955351
89	0x3d2a0ee7	0.04151812
90	0xbc3a5d54	-0.01137479
91	0x3dc9d23c	0.09854552
92	0x3da64efc	0.08120534
93	0xbad2031e	-0.0016022658
94	0xbd7bdfe6	-0.061492823
95	0x3c5e3cc5	0.013564293
96	0x3da14694	0.0787479
97	0xbd0a760b	-0.03380398
98	0xbd838af3	-0.06422987
99	0xbd7a297b	-0.061074715
100	0x3d5486b4	0.051886275
101	0x3d3cb438	0.046070307
102	0xbdada3cf	-0.0847851
103	0xbd83e5d0	-0.06440318
104	0x3d91c7bd	0.07118175
105	0xbdbfd3c0	-0.0936656
106	0xbd8bf08a	-0.068329886
107	0x3c8949c0	0.0167588
108	0x3dac784f	0.084213845
109	0x3d0d520e	0.03450208
110	0x3d516aff	0.05112743
111	0xbd1800f1	-0.037110273
112	0xbc9cd037	-0.019142253
113	0x3cdb043f	0.026735423
114	0xbbc35b45	-0.005961808
115	0xbd9df677	-0.07713025
116	0xbce090ac	-0.027412735
117	0x3b206d5a	0.002447924
118	0x3dc0a979	0.09407324
119	0xbdc696fe	-0.09696768
120	0x3d7940d2	0.060852833
121	0xbcd1062c	-0.025515638
122	0xbcfaa88d	-0.03059795
123	0x3d53ab4f	0.051677044
124	0x3c854e7f	0.016272781
125	0x3d623683	0.055227768
126	0x3d85f21a	0.06540318
127	0x3c82d2cd	0.015969658
128	0xbd7c8854	-0.06165345
129	0xbdad256c	-0.08454403
130	0xbd97bbe9	-0.07408888
131	0x3dbd4ca5	0.092431344
132	0xbda6b774	-0.0814046
133	0xbca17599	-0.019709395
134	0x3cb738d3	0.022365963
135	0xbd3e2f56	-0.04643186
136	0x3d09dda9	0.033658657
137	0x3c701b17	0.014654896
138	0x3d372b03	0.044718754
139	0xbdcc2492	-0.09967913
140	0x3caf1146	0.021370541
141	0x3cc1cc6b	0.023657044
142	0x3d8e0f88	0.06936556
143	0x3c2aa54d	0.010415387
144	0xbd824b13	-0.063619755
145	0x3dae9943	0.08525326
146	0xbb0e871b	-0.002174801
147	0x3ca4e270	0.020127505
148	0x3d927c97	0.0715267
149	0xbdbfb317	-0.093603306
150	0xbd7fbc98	-0.062435716
151	0x3d61c289	0.055117164
152	0x3db29b90	0.087210774
153	0x3d18284a	0.037147798
154	0x3d74ae24	0.059736386
155	0xbc053eaf	-0.008132621
156	0x3d4cd2e0	0.050005794
157	0xbc693b1a	-0.014235282
158	0xbd15739e	-0.036487214
159	0x3d203229	0.039110336
160	0x3d7a1ed1	0.061064545
161	0xbcd1a399	-0.025590705
162	0xbdcb9c86	-0.09941964
163	0x3d95177c	0.0727987
164	0x3cdf8a91	0.027287753
165	0x3db95c20	0.090507746
166	0xbd0ab10b	-0.033860248
167	0xbdcaa478	-0.09894651
168	0x3d8e8292	0.06958498
169	0x3d7de976	0.061990224
170	0xbd84f4f5	-0.06492034
171	0xbcfb7247	-0.03069414
172	0xbd40fae7	-0.04711428
173	0x3d415c7c	0.04720734
174	0xbdba3c5b	-0.09093543
175	0xbcd23737	-0.025661094
176	0x3d2d35a2	0.042287476
177	0xbc763acf	-0.0150286695
178	0xbd65312b	-0.055955093
179	0x3db15d05	0.0866032
180	0xbc1b88d8	-0.009493075
181	0x3d35d3f3	0.044391584
182	0x3d2ff0f2	0.042954393
183	0xbdb0cb1f	-0.08632492
184	0x3cd918ed	0.026501143
185	0x3d7fe1c6	0.062471174
186	0xbd98cd05	-0.07460979
187	0x3da150fc	0.07876775
188	0x3daff4b6	0.08591597
189	0x3dc94d14	0.098291546
190	0x3d1c8b04	0.038218513
191	0x3d94254b	0.072336756
192	0xbd8aa182	-0.067690864
193	0x3d475dec	0.048673555
194	0xbd87d607	-0.06632619
195	0xbc7e15dc	-0.015508141
196	0x3d6fcee6	0.058546923
197	0x3d98088a	0.07423504
198	0xbd1a504d	-0.037674237
199	0x3d0dbe39	0.03460524
200	0xbda74c4b	-0.081688486
201	0xbd6c7e34	-0.057737544
202	0x3da6668d	0.08125029
203	0x3d4f75bb	0.050649386
204	0x3dc79daf	0.09746873
205	0x3c9469df	0.01811689
206	0x3b9e4c71	0.00483089
207	0x3daf00df	0.08545088
208	0xbd455a1f	-0.04818165
209	0xbc9d4137	-0.019196136
210	0x3dbcb7bf	0.09214734
211	0xbda4930d	-0.0803586
212	0x3cff0e32	0.031134699
213	0xbb852b39	-0.0040639904
214	0xbd0077a6	-0.031364106
215	0x3dd06556	0.10175578
216	0xbb3c25fb	-0.0028709162
217	0x3ba06e59	0.004895967
218	0x3d5ade59	0.053434703
219	0xbd988f23	-0.07449176
220	0xbd93545a	-0.07193823
221	0xbd900aae	-0.07033287
222	0xbb5c069b	-0.0033573273
223	0xbd323c5f	-0.043514606
224	0x3d766cc7	0.060162332
225	0xbd8bac79	-0.06820006
226	0xba92e214	-0.0011206293
227	0xbb5b01ca	-0.0033417814
228	0xbd037bd7	-0.032100525
229	0xbd233a16	-0.039850317
230	0x3dcc1cae	0.09966408
231	0xbda28020	-0.07934594
232	0xbdb15cad	-0.086602546
233	0xbd8847a4	-0.06654289
234	0x3d0bf269	0.034166727
235	0xbd9d22d0	-0.076726556
236	0x3da756e8	0.08170873
237	0x3d08a03f	0.033355948
238	0xbd8ee49c	-0.069771975
239	0x3db91c80	0.09038639
240	0x3da2d45f	0.07950663
241	0x3d85be54	0.06530443
242	0x3d74a26f	0.05972522
243	0x3dbc730b	0.0920163
244	0xbd8f2051	-0.06988586
245	0xbd124c42	-0.035717256
246	0x3cddab0d	0.027059102
247	0xbd01dad0	-0.031702816
248	0x3d38c9a5	0.04511418
249	0xbbc13b0a	-0.0058969306
250	0x3dbe8ab5	0.093038
251	0x3d77bc41	0.060482267
252	0xbd21c473	-0.03949399
253	0x3cd378ec	0.025814496
254	0xbd54a6b5	-0.051916797
255	0x3d990910	0.07472432

bias f4 [50]
0	0x3ce8b657	0.028407259
1	0xbdaa56f0	-0.08317363
2	0x3c65bab0	0.014021561
3	0xbd584a8e	-0.052805476
4	0xbdb71c73	-0.08940973
5	0x3daf0d91	0.085475095
6	0xbd341689	-0.043966804
7	0xbd214013	-0.039367747
8	0xbd8b532f	-0.068029754
9	0x3db6ea2b	0.08931383
10	0x3d4a842d	0.04944246
11	0xbdbc0426	-0.09180479
12	0x3bf9fac8	0.0076287724
13	0x3c19b4cc	0.009381484
14	0xbcd26f30	-0.025687784
15	0xbc5881fc	-0.013214584
16	0xbb7fdf58	-0.0039043035
17	0xbd37e0ff	-0.044892307
18	0xbda3cb81	-0.079978
19	0x3d85ba0e	0.06529628
20	0xbc9ee9af	-0.019398538
21	0xbd1f5aa7	-0.038904812
22	0x3d79e8c8	0.061013013
23	0xbbaca999	-0.005269241
24	0x3c21efa4	0.009883795
25	0xbd8f1998	-0.069873035
26	0x3b8f8d90	0.0043808892
27	0x3d765f6c	0.060149595
28	0x3c752dcd	0.014964533
29	0xbda362c3	-0.07977822
30	0xbd5dc949	-0.05414704
31	0xbdc2f8d7	-0.09520119
32	0xbcff8005	-0.031188974
33	0x3cf30f36	0.02967034
34	0x3c95ba45	0.018277297
35	0x3d1349a6	0.03595891
36	0xbd8fbb5e	-0.07018159
37	0xbd07b564	-0.033131972
38	0x3dba616f	0.09100615
39	0x3c1ec5ed	0.009690744
40	0xbd01943d	-0.03163551
41	0x3ca46b28	0.020070627
42	0xbdb641ec	-0.08899292
43	0xbc5c3143	-0.013439479
44	0xbd8d41c2	-0.06897308
45	0x3d20a0a3	0.039215695
46	0x3d8a447d	0.06751344
47	0x3dcbc93c	0.09950492
48	0x3779a08a	1.4878935e-05
49	0x3d57cd60	0.052686095

weight f4 [25, 50]
0	0x3c31195f	0.010809272
1	0x3d6ff12f	0.05857962
2	0x3c98c6d5	0.018649498
3	0xbd3eae7b	-0.046553116
4	0xbd14ebeb	-0.0363578
5	0xbe15c8c1	-0.14627363
6	0xbd6a2af6	-0.057169877
7	0x3df05732	0.11735381
8	0x3ce37c1a	0.027769137
9	0x3d820fda	0.0635068
10	0xbd8617f7	-0.0654754
11	0x3cd308bf	0.025761006
12	0xbdb1abe7	-0.08675366
13	0xbd99c02e	-0.075073585
14	0xbe014139	-0.12622537
15	0xbd9c6f6d	-0.0763844
16	0x3cad4c55	0.021154562
17	0xbc4fb252	-0.012676792
18	0x3d9556a6	0.072919175
19	0xbc55f312	-0.013058441
20	0x3e032645	0.12807567
21	0x3d869fed	0.06573472
22	0x3d383759	0.04497466
23	0xbcba4b96	-0.02274112
24	0x3c9391ef	0.018013922
25	0x3da8c541	0.08240748
26	0xbdbccfe0	-0.092193365
27	0x3b52821c	0.0032121008
28	0xbc2472f9	-0.010037177
29	0xbc632b5d	-0.013865319
30	0xbd8472c4	-0.06467202
31	0xbd7a0726	-0.061041974
32	0xbd8a3068	-0.06747514
33	0xbcf75a38	-0.030194387
34	0x3c80692b	0.015675148
35	0xbd8a9bc4	-0.06767991
36	0xbbe67570	-0.0070330426
37	0x3d3eb37f	0.0465579
38	0x3db52fd0	0.0884701
39	0x3ddacc23	0.10683467
40	0xbd97d6ef	-0.07414042
41	0x3dc0a9c8	0.09407383
42	0xbdf68024	-0.1203616
43	0x3da49b1a	0.08037396
44	0x3d85e90f	0.06538593
45	0xbdc652f6	-0.09683792
46	0xbc910704	-0.01770354
47	0x3d91cc8a	0.07119091
48	0xbd9e6312	-0.0773374
49	0x3d05db6b	0.032679956
50	0x3c80972b	0.015697083
51	0xbcfeccbc	-0.031103484
52	0xbdf805cf	-0.12110483
53	0x3e034ec1	0.12823011
54	0xbd6b3369	-0.057422075
55	0x3e058f75	0.13043006
56	0xbdc042b8	-0.093877256
57	0xbc8231c5	-0.015892873
58	0xbb9bb688	-0.004751984
59	0x3df9ea11	0.12202848
60	0x3d94648f	0.072457425
61	0x3dcca1c9	0.099917956
62	0x3db1d546	0.08683257
63	0x3e03294e	0.12808725
64	0xbe070a04	-0.13187414
65	0x3cbe3beb	0.02322193
66	0xbc705264	-0.014668081
67	0xbe0e31ff	-0.1388626
68	0xbdeaf55a	-0.11472578
69	0x3d7867fe	0.06064605
70	0x3cf01b82	0.029309992
71	0x3de52a63	0.11189725
72	0x3d0abc23	0.033870827
73	0x3d728ff6	0.059219323
74	0x3dcd6e9d	0.100308634
75	0x3d97fa1f	0.07420754
76	0xbcd921f9	-0.026505457
77	0x3ad8efc9	0.0016550954
78	0x3cb8b6ff	0.022548197
79	0xbdbc9a34	-0.092090994
80	0x3d692b7a	0.056926228
81	0xbd806bed	-0.06270585
82	0xbdccc602	-0.099987045
83	0xbd910f83	-0.07083037
84	0x3dbfd262	0.09366299
85	0xbda64bca	-0.08119924
86	0x3df855a4	0.1212571
87	0xbd0db8d0	-0.03460008
88	0x3d885ee8	0.06658727
89	0xbd8ace29	-0.06777603
90	0x3b4ec13d	0.0031548284
91	0x3d36b502	0.044606216
92	0x3d380e9c	0.044935808
93	0xb959b86c	-0.00020763435
94	0x3e0e4cdc	0.13896507
95	0xbda42909	-0.08015639
96	0x3cc76f58	0.024345085
97	0x3d3ab115	0.045579035
98	0xbe012872	-0.12613085
99	0x3dd13070	0.10214317
100	0x3dd83f84	0.1055899
101	0xbcb2965d	-0.021800214
102	0xbc6b8119	-0.014374041
103	0xbb64fc46	-0.0034940406
104	0x3d0cdeba	0.034392096
105	0x3d2d7845	0.042351026
106	0x3abf28db	0.001458432
107	0x3dad8688	0.084729254
108	0x3e067cec	0.13133591
109	0xbd0ff013	-0.035141062
110	0x3cd567ed	0.026050532
111	0x3ca080ae	0.01959261
112	0xbd54d136	-0.05195733
113	0xbdd4ed6e	-0.103968486
114	0x3de76379	0.1129827
115	0x3df7ea28	0.12105209
116	0xbe00d0da	-0.1257967
117	0x3de5c5c9	0.11219365
118	0x37c41762	2.337591e-05
119	0x3d4345d1	0.047674004
120	0xbcf7237c	-0.030168287
121	0xbccbeab5	-0.02489219
122	0x3d89389b	0.0670025
123	0x3c1cf3b1	0.009579585
124	0xbdee2696	-0.116284534
125	0xbdac12b2	-0.08402003
126	0xbd2c2863	-0.042030703
127	0x3ddfe9bc	0.10933253
128	0xbd2702a0	-0.040773988
129	0xbd96b077	-0.07357877
130	0xbcf61d0d	-0.03004315
131	0xbdd8004b	-0.10546931
132	0xbcb16e2e	-0.021658983
133	0xbdf8c7b7	-0.121474676
134	0xbcf16374	-0.029466368
135	0xbe0aa5e5	-0.13539846
136	0x3d57494b	0.052560132
137	0x3d8bbfa0	0.06823659
138	0xbe0a65cb	-0.13515393
139	0xbddf7935	-0.1091179
140	0x3e06fe0b	0.13182847
141	0x3cb886fb	0.022525301
142	0x3d84dfd4	0.06488004
143	0xbe0c1cd9	-0.1368288
144	0xbdc8b438	-0.09799999
145	0xbdce9921	-0.10087801
146	0xbd4ea54b	-0.050450604
147	0x3c2c588f	0.010519161
148	0xbdb51cca	-0.08843382
149	0xbd981adc	-0.07426998
150	0x3cd8455a	0.026400257
151	0xbddeb7df	-0.108749144
152	0x39fddaa7	0.0004841883
153	0xbc869080	-0.016426325
154	0xbd5b11e0	-0.053483844
155	0x3dae85ca	0.08521612
156	0x3d14734a	0.03624276
157	0xbdb91e72	-0.0903901
158	0xbd5ac5ab	-0.053411167
159	0x3d8b5f84	0.068053275
160	0x3d977991	0.07396234
161	0x3ddf530f	0.10904514
162	0x3d8b4746	0.06800704
163	0x3d0e9c6a	0.034817137
164	0x3d424046	0.047424577
165	0xbbe85f16	-0.0070914133
166	0xbd4d990c	-0.050194785
167	0x3d227b3b	0.039668303
168	0x3de39cde	0.111139044
169	0x3de455e8	0.11149198
170	0xbdf350ea	-0.118806675
171	0x3da5e574	0.08100405
172	0x3cfaceb3	0.03061614
173	0xbc8a96a4	-0.016917534
174	0xbe0dd77a	-0.13851729
175	0xbd26ccab	-0.04072253
176	0xbd4f671d	-0.050635446
177	0xbdc7b664	-0.09751585
178	0x3dfeb132	0.12436141
179	0xbd02750b	-0.031849902
180	0xbb9ec751	-0.0048455377
181	0x3e03b6f5	0.12862761
182	0x3df6d18c	0.12051687
183	0xbd764c95	-0.060131628
184	0x3d9105b6	0.070811674
185	0xbd8c480d	-0.0684968
186	0xbcd41bbe	-0.025892135
187	0xbbe09cd5	-0.0068546333
188	0xbd9ed940	-0.07756281
189	0x3c7dd8c0	0.015493572
190	0x3bf1e113	0.0073815673
191	0x3de636c9	0.11240918
192	0x3db6a66e	0.08918463
193	0x3cbd0185	0.023072014
194	0xbdf647f4	-0.12025443
195	0x3e03adf9	0.12859334
196	0x3dc59dc1	0.0964923
197	0xbdee0c79	-0.11623473
198	0xbb2f985f	-0.00267937
199	0xbdfea677	-0.124340944
200	0x3ca53f11	0.020171674
201	0xbd3f2149	-0.046662603
202	0xbdbf536a	-0.09342082
203	0xbd9dd0bc	-0.077058285
204	0xbd46fd2c	-0.048581287
205	0x3c88ec17	0.016714139
206	0xbe0968d4	-0.13418895
207	0x3c4b809a	0.012420798
208	0x3ddab66b	0.10679325
209	0x3e072102	0.13196185
210	0x3df9ace4	0.121911794
211	0xbe12ca9d	-0.14335103
212	0x3deaa4a3	0.11457183
213	0x3dacf5bf	0.0844531
214	0x3c990eb5	0.01868377
215	0x3c1b3c3f	0.009474813
216	0xbcd6b202	-0.026207928
217	0xbd7e9edd	-0.062163223
218	0xbdac3e9e	-0.08410381
219	0x3c0d8f8c	0.008640181
220	0xbe05749d	-0.13032766
221	0xbe04e449	-0.12977709
222	0x3e078217	0.13233219
223	0xbcb6b353	-0.022302305
224	0xbdab4022	-0.08361842
225	0x3d3e150f	0.0464068
226	0x3d4b778b	0.049674552
227	0x3e0f82ab	0.1401469
228	0xbd5f36af	-0.05449551
229	0xbb8fc9ec	-0.0043880846
230	0xbd834b7d	-0.064108826
231	0xbd98dde5	-0.07464198
232	0xbd871111	-0.06595052
233	0x3c5a5f5f	0.013328402
234	0x3c43347e	0.011914371
235	0xbdc2c158	-0.09509534
236	0xbdb8ca92	-0.09023012
237	0x3ddfd313	0.10928931
238	0xbdd0b49a	-0.10190697
239	0x3d9a4fef	0.075347774
240	0x3adb6546	0.0016738556
241	0x3d9cd2eb	0.07657417
242	0xbe08a630	-0.13344646
243	0xbdc6198b	-0.09672841
244	0x3ceea889	0.029133098
245	0x3d3084b5	0.04309531
246	0x3dec8fab	0.1155084
247	0xbc606b9a	-0.013697529
248	0x3cf39947	0.029736174
249	0xbe0ffe57	-0.14061867
250	0xbc761ed3	-0.0150219975
251	0xbc8dfcc6	-0.017332446
252	0xbdfd12e2	-0.12357117
253	0xbd3eec46	-0.046612047
254	0xbd26f640	-0.040762186
255	0xbe13c1dd	-0.14429422

bias f4 [25]
0	0x3ce13ccc	0.02749481
1	0x3d8bf0de	0.06833051
2	0x3df62aaa	0.12019856
3	0x3dd328c8	0.10310513
4	0xbdce3cbe	-0.100701794
5	0x3d9d385c	0.07676765
6	0xbdda29cd	-0.10652504
7	0xbde36a4c	-0.11104259
8	0xbbbbf861	-0.005736396
9	0xbc35eb13	-0.011103409
10	0x3e16311a	0.14667168
11	0x3db35282	0.087559715
12	0xbd995262	-0.074864164
13	0x3e135fb5	0.14391978
14	0xbd9fd03f	-0.07803392
15	0x3ca21e30	0.019789785
16	0xbe00c6ca	-0.12575832
17	0x3de37bbf	0.11107587
18	0xbd664680	-0.056219578
19	0xbb2324e4	-0.0024893815
20	0x3c0416af	0.008062049
21	0xbd5f095a	-0.054452278
22	0x3c6992c1	0.01425618
23	0x3b759de9	0.0037478155
24	0xbddcba73	-0.1077775

weight f4 [1, 25]
0	0xbe1fa85b	-0.15591566
1	0x3d96b790	0.073592305
2	0x3dfe8fda	0.12429781
3	0xbd91c37d	-0.071173646
4	0x3d8db9bd	0.069201924
5	0xbd96985a	-0.073532775
6	0x3d86e223	0.06586101
7	0xbdd6d1c4	-0.10489228
8	0x3dab9698	0.08378333
9	0xbe2074db	-0.15669577
10	0x3db5d771	0.08878983
11	0xbcb36f32	-0.021903608
12	0x3d97ff00	0.07421684
13	0x3e15fb7a	0.14646712
14	0x3e01ed73	0.12688236
15	0x3db102cf	0.08643114
16	0xbb81fe5f	-0.003967091
17	0x3d32ca91	0.043650214
18	0x3dad9243	0.08475163
19	0xbc93eb53	-0.018056547
20	0xbe3afab5	-0.182597
21	0x3e094a40	0.1340723
22	0x3d6e32c8	0.058153898
23	0xbd75d558	-0.060017914
24	0x3c152c7f	0.009104847
